<?xml version="1.0" ?>
<net batch="1" name="vd-net-caffe" version="5">
	<layers>
		<layer id="0" name="data" precision="FP16" type="Input">
			<output>
				<port id="0">
					<dim>1</dim>
					<dim>3</dim>
					<dim>384</dim>
					<dim>672</dim>
				</port>
			</output>
		</layer>
		<layer id="1" name="Mul_/Fused_Mul_/FusedScaleShift_" precision="FP16" type="ScaleShift">
			<input>
				<port id="0">
					<dim>1</dim>
					<dim>3</dim>
					<dim>384</dim>
					<dim>672</dim>
				</port>
			</input>
			<output>
				<port id="3">
					<dim>1</dim>
					<dim>3</dim>
					<dim>384</dim>
					<dim>672</dim>
				</port>
			</output>
			<blobs>
				<weights offset="0" size="6"/>
				<biases offset="6" size="6"/>
			</blobs>
		</layer>
		<layer id="2" name="conv1" precision="FP16" type="Convolution">
			<data dilations="1,1" group="1" kernel="3,3" output="32" pads_begin="1,1" pads_end="1,1" strides="2,2"/>
			<input>
				<port id="0">
					<dim>1</dim>
					<dim>3</dim>
					<dim>384</dim>
					<dim>672</dim>
				</port>
			</input>
			<output>
				<port id="3">
					<dim>1</dim>
					<dim>32</dim>
					<dim>192</dim>
					<dim>336</dim>
				</port>
			</output>
			<blobs>
				<weights offset="12" size="1728"/>
				<biases offset="1740" size="64"/>
			</blobs>
		</layer>
		<layer id="3" name="relu1" precision="FP16" type="ReLU">
			<data negative_slope="0.0"/>
			<input>
				<port id="0">
					<dim>1</dim>
					<dim>32</dim>
					<dim>192</dim>
					<dim>336</dim>
				</port>
			</input>
			<output>
				<port id="1">
					<dim>1</dim>
					<dim>32</dim>
					<dim>192</dim>
					<dim>336</dim>
				</port>
			</output>
		</layer>
		<layer id="4" name="conv2_1/dw" precision="FP16" type="Convolution">
			<data dilations="1,1" group="32" kernel="3,3" output="32" pads_begin="1,1" pads_end="1,1" strides="1,1"/>
			<input>
				<port id="0">
					<dim>1</dim>
					<dim>32</dim>
					<dim>192</dim>
					<dim>336</dim>
				</port>
			</input>
			<output>
				<port id="3">
					<dim>1</dim>
					<dim>32</dim>
					<dim>192</dim>
					<dim>336</dim>
				</port>
			</output>
			<blobs>
				<weights offset="1804" size="576"/>
				<biases offset="2380" size="64"/>
			</blobs>
		</layer>
		<layer id="5" name="relu2_1/dw" precision="FP16" type="ReLU">
			<data negative_slope="0.0"/>
			<input>
				<port id="0">
					<dim>1</dim>
					<dim>32</dim>
					<dim>192</dim>
					<dim>336</dim>
				</port>
			</input>
			<output>
				<port id="1">
					<dim>1</dim>
					<dim>32</dim>
					<dim>192</dim>
					<dim>336</dim>
				</port>
			</output>
		</layer>
		<layer id="6" name="conv2_1/sep" precision="FP16" type="Convolution">
			<data dilations="1,1" group="1" kernel="1,1" output="56" pads_begin="0,0" pads_end="0,0" strides="1,1"/>
			<input>
				<port id="0">
					<dim>1</dim>
					<dim>32</dim>
					<dim>192</dim>
					<dim>336</dim>
				</port>
			</input>
			<output>
				<port id="3">
					<dim>1</dim>
					<dim>56</dim>
					<dim>192</dim>
					<dim>336</dim>
				</port>
			</output>
			<blobs>
				<weights offset="2444" size="3584"/>
				<biases offset="6028" size="112"/>
			</blobs>
		</layer>
		<layer id="7" name="relu2_1/sep" precision="FP16" type="ReLU">
			<data negative_slope="0.0"/>
			<input>
				<port id="0">
					<dim>1</dim>
					<dim>56</dim>
					<dim>192</dim>
					<dim>336</dim>
				</port>
			</input>
			<output>
				<port id="1">
					<dim>1</dim>
					<dim>56</dim>
					<dim>192</dim>
					<dim>336</dim>
				</port>
			</output>
		</layer>
		<layer id="8" name="conv2_2/dw" precision="FP16" type="Convolution">
			<data dilations="1,1" group="56" kernel="3,3" output="56" pads_begin="1,1" pads_end="1,1" strides="2,2"/>
			<input>
				<port id="0">
					<dim>1</dim>
					<dim>56</dim>
					<dim>192</dim>
					<dim>336</dim>
				</port>
			</input>
			<output>
				<port id="3">
					<dim>1</dim>
					<dim>56</dim>
					<dim>96</dim>
					<dim>168</dim>
				</port>
			</output>
			<blobs>
				<weights offset="6140" size="1008"/>
				<biases offset="7148" size="112"/>
			</blobs>
		</layer>
		<layer id="9" name="relu2_2/dw" precision="FP16" type="ReLU">
			<data negative_slope="0.0"/>
			<input>
				<port id="0">
					<dim>1</dim>
					<dim>56</dim>
					<dim>96</dim>
					<dim>168</dim>
				</port>
			</input>
			<output>
				<port id="1">
					<dim>1</dim>
					<dim>56</dim>
					<dim>96</dim>
					<dim>168</dim>
				</port>
			</output>
		</layer>
		<layer id="10" name="conv2_2/sep" precision="FP16" type="Convolution">
			<data dilations="1,1" group="1" kernel="1,1" output="112" pads_begin="0,0" pads_end="0,0" strides="1,1"/>
			<input>
				<port id="0">
					<dim>1</dim>
					<dim>56</dim>
					<dim>96</dim>
					<dim>168</dim>
				</port>
			</input>
			<output>
				<port id="3">
					<dim>1</dim>
					<dim>112</dim>
					<dim>96</dim>
					<dim>168</dim>
				</port>
			</output>
			<blobs>
				<weights offset="7260" size="12544"/>
				<biases offset="19804" size="224"/>
			</blobs>
		</layer>
		<layer id="11" name="relu2_2/sep" precision="FP16" type="ReLU">
			<data negative_slope="0.0"/>
			<input>
				<port id="0">
					<dim>1</dim>
					<dim>112</dim>
					<dim>96</dim>
					<dim>168</dim>
				</port>
			</input>
			<output>
				<port id="1">
					<dim>1</dim>
					<dim>112</dim>
					<dim>96</dim>
					<dim>168</dim>
				</port>
			</output>
		</layer>
		<layer id="12" name="conv3_1/dw" precision="FP16" type="Convolution">
			<data dilations="1,1" group="112" kernel="3,3" output="112" pads_begin="1,1" pads_end="1,1" strides="1,1"/>
			<input>
				<port id="0">
					<dim>1</dim>
					<dim>112</dim>
					<dim>96</dim>
					<dim>168</dim>
				</port>
			</input>
			<output>
				<port id="3">
					<dim>1</dim>
					<dim>112</dim>
					<dim>96</dim>
					<dim>168</dim>
				</port>
			</output>
			<blobs>
				<weights offset="20028" size="2016"/>
				<biases offset="22044" size="224"/>
			</blobs>
		</layer>
		<layer id="13" name="relu3_1/dw" precision="FP16" type="ReLU">
			<data negative_slope="0.0"/>
			<input>
				<port id="0">
					<dim>1</dim>
					<dim>112</dim>
					<dim>96</dim>
					<dim>168</dim>
				</port>
			</input>
			<output>
				<port id="1">
					<dim>1</dim>
					<dim>112</dim>
					<dim>96</dim>
					<dim>168</dim>
				</port>
			</output>
		</layer>
		<layer id="14" name="conv3_1/sep" precision="FP16" type="Convolution">
			<data dilations="1,1" group="1" kernel="1,1" output="112" pads_begin="0,0" pads_end="0,0" strides="1,1"/>
			<input>
				<port id="0">
					<dim>1</dim>
					<dim>112</dim>
					<dim>96</dim>
					<dim>168</dim>
				</port>
			</input>
			<output>
				<port id="3">
					<dim>1</dim>
					<dim>112</dim>
					<dim>96</dim>
					<dim>168</dim>
				</port>
			</output>
			<blobs>
				<weights offset="22268" size="25088"/>
				<biases offset="47356" size="224"/>
			</blobs>
		</layer>
		<layer id="15" name="relu3_1/sep" precision="FP16" type="ReLU">
			<data negative_slope="0.0"/>
			<input>
				<port id="0">
					<dim>1</dim>
					<dim>112</dim>
					<dim>96</dim>
					<dim>168</dim>
				</port>
			</input>
			<output>
				<port id="1">
					<dim>1</dim>
					<dim>112</dim>
					<dim>96</dim>
					<dim>168</dim>
				</port>
			</output>
		</layer>
		<layer id="16" name="conv3_2/dw" precision="FP16" type="Convolution">
			<data dilations="1,1" group="112" kernel="3,3" output="112" pads_begin="1,1" pads_end="1,1" strides="2,2"/>
			<input>
				<port id="0">
					<dim>1</dim>
					<dim>112</dim>
					<dim>96</dim>
					<dim>168</dim>
				</port>
			</input>
			<output>
				<port id="3">
					<dim>1</dim>
					<dim>112</dim>
					<dim>48</dim>
					<dim>84</dim>
				</port>
			</output>
			<blobs>
				<weights offset="47580" size="2016"/>
				<biases offset="49596" size="224"/>
			</blobs>
		</layer>
		<layer id="17" name="relu3_2/dw" precision="FP16" type="ReLU">
			<data negative_slope="0.0"/>
			<input>
				<port id="0">
					<dim>1</dim>
					<dim>112</dim>
					<dim>48</dim>
					<dim>84</dim>
				</port>
			</input>
			<output>
				<port id="1">
					<dim>1</dim>
					<dim>112</dim>
					<dim>48</dim>
					<dim>84</dim>
				</port>
			</output>
		</layer>
		<layer id="18" name="conv3_2/sep" precision="FP16" type="Convolution">
			<data dilations="1,1" group="1" kernel="1,1" output="208" pads_begin="0,0" pads_end="0,0" strides="1,1"/>
			<input>
				<port id="0">
					<dim>1</dim>
					<dim>112</dim>
					<dim>48</dim>
					<dim>84</dim>
				</port>
			</input>
			<output>
				<port id="3">
					<dim>1</dim>
					<dim>208</dim>
					<dim>48</dim>
					<dim>84</dim>
				</port>
			</output>
			<blobs>
				<weights offset="49820" size="46592"/>
				<biases offset="96412" size="416"/>
			</blobs>
		</layer>
		<layer id="19" name="relu3_2/sep" precision="FP16" type="ReLU">
			<data negative_slope="0.0"/>
			<input>
				<port id="0">
					<dim>1</dim>
					<dim>208</dim>
					<dim>48</dim>
					<dim>84</dim>
				</port>
			</input>
			<output>
				<port id="1">
					<dim>1</dim>
					<dim>208</dim>
					<dim>48</dim>
					<dim>84</dim>
				</port>
			</output>
		</layer>
		<layer id="20" name="conv4_1/dw" precision="FP16" type="Convolution">
			<data dilations="1,1" group="208" kernel="3,3" output="208" pads_begin="1,1" pads_end="1,1" strides="1,1"/>
			<input>
				<port id="0">
					<dim>1</dim>
					<dim>208</dim>
					<dim>48</dim>
					<dim>84</dim>
				</port>
			</input>
			<output>
				<port id="3">
					<dim>1</dim>
					<dim>208</dim>
					<dim>48</dim>
					<dim>84</dim>
				</port>
			</output>
			<blobs>
				<weights offset="96828" size="3744"/>
				<biases offset="100572" size="416"/>
			</blobs>
		</layer>
		<layer id="21" name="relu4_1/dw" precision="FP16" type="ReLU">
			<data negative_slope="0.0"/>
			<input>
				<port id="0">
					<dim>1</dim>
					<dim>208</dim>
					<dim>48</dim>
					<dim>84</dim>
				</port>
			</input>
			<output>
				<port id="1">
					<dim>1</dim>
					<dim>208</dim>
					<dim>48</dim>
					<dim>84</dim>
				</port>
			</output>
		</layer>
		<layer id="22" name="conv4_1/sep" precision="FP16" type="Convolution">
			<data dilations="1,1" group="1" kernel="1,1" output="216" pads_begin="0,0" pads_end="0,0" strides="1,1"/>
			<input>
				<port id="0">
					<dim>1</dim>
					<dim>208</dim>
					<dim>48</dim>
					<dim>84</dim>
				</port>
			</input>
			<output>
				<port id="3">
					<dim>1</dim>
					<dim>216</dim>
					<dim>48</dim>
					<dim>84</dim>
				</port>
			</output>
			<blobs>
				<weights offset="100988" size="89856"/>
				<biases offset="190844" size="432"/>
			</blobs>
		</layer>
		<layer id="23" name="relu4_1/sep" precision="FP16" type="ReLU">
			<data negative_slope="0.0"/>
			<input>
				<port id="0">
					<dim>1</dim>
					<dim>216</dim>
					<dim>48</dim>
					<dim>84</dim>
				</port>
			</input>
			<output>
				<port id="1">
					<dim>1</dim>
					<dim>216</dim>
					<dim>48</dim>
					<dim>84</dim>
				</port>
			</output>
		</layer>
		<layer id="24" name="conv4_2/dw" precision="FP16" type="Convolution">
			<data dilations="1,1" group="216" kernel="3,3" output="216" pads_begin="1,1" pads_end="1,1" strides="2,2"/>
			<input>
				<port id="0">
					<dim>1</dim>
					<dim>216</dim>
					<dim>48</dim>
					<dim>84</dim>
				</port>
			</input>
			<output>
				<port id="3">
					<dim>1</dim>
					<dim>216</dim>
					<dim>24</dim>
					<dim>42</dim>
				</port>
			</output>
			<blobs>
				<weights offset="191276" size="3888"/>
				<biases offset="195164" size="432"/>
			</blobs>
		</layer>
		<layer id="25" name="relu4_2/dw" precision="FP16" type="ReLU">
			<data negative_slope="0.0"/>
			<input>
				<port id="0">
					<dim>1</dim>
					<dim>216</dim>
					<dim>24</dim>
					<dim>42</dim>
				</port>
			</input>
			<output>
				<port id="1">
					<dim>1</dim>
					<dim>216</dim>
					<dim>24</dim>
					<dim>42</dim>
				</port>
			</output>
		</layer>
		<layer id="26" name="conv4_2/sep" precision="FP16" type="Convolution">
			<data dilations="1,1" group="1" kernel="1,1" output="328" pads_begin="0,0" pads_end="0,0" strides="1,1"/>
			<input>
				<port id="0">
					<dim>1</dim>
					<dim>216</dim>
					<dim>24</dim>
					<dim>42</dim>
				</port>
			</input>
			<output>
				<port id="3">
					<dim>1</dim>
					<dim>328</dim>
					<dim>24</dim>
					<dim>42</dim>
				</port>
			</output>
			<blobs>
				<weights offset="195596" size="141696"/>
				<biases offset="337292" size="656"/>
			</blobs>
		</layer>
		<layer id="27" name="relu4_2/sep" precision="FP16" type="ReLU">
			<data negative_slope="0.0"/>
			<input>
				<port id="0">
					<dim>1</dim>
					<dim>328</dim>
					<dim>24</dim>
					<dim>42</dim>
				</port>
			</input>
			<output>
				<port id="1">
					<dim>1</dim>
					<dim>328</dim>
					<dim>24</dim>
					<dim>42</dim>
				</port>
			</output>
		</layer>
		<layer id="28" name="conv5_1/dw" precision="FP16" type="Convolution">
			<data dilations="1,1" group="328" kernel="3,3" output="328" pads_begin="1,1" pads_end="1,1" strides="1,1"/>
			<input>
				<port id="0">
					<dim>1</dim>
					<dim>328</dim>
					<dim>24</dim>
					<dim>42</dim>
				</port>
			</input>
			<output>
				<port id="3">
					<dim>1</dim>
					<dim>328</dim>
					<dim>24</dim>
					<dim>42</dim>
				</port>
			</output>
			<blobs>
				<weights offset="337948" size="5904"/>
				<biases offset="343852" size="656"/>
			</blobs>
		</layer>
		<layer id="29" name="relu5_1/dw" precision="FP16" type="ReLU">
			<data negative_slope="0.0"/>
			<input>
				<port id="0">
					<dim>1</dim>
					<dim>328</dim>
					<dim>24</dim>
					<dim>42</dim>
				</port>
			</input>
			<output>
				<port id="1">
					<dim>1</dim>
					<dim>328</dim>
					<dim>24</dim>
					<dim>42</dim>
				</port>
			</output>
		</layer>
		<layer id="30" name="conv5_1/sep" precision="FP16" type="Convolution">
			<data dilations="1,1" group="1" kernel="1,1" output="288" pads_begin="0,0" pads_end="0,0" strides="1,1"/>
			<input>
				<port id="0">
					<dim>1</dim>
					<dim>328</dim>
					<dim>24</dim>
					<dim>42</dim>
				</port>
			</input>
			<output>
				<port id="3">
					<dim>1</dim>
					<dim>288</dim>
					<dim>24</dim>
					<dim>42</dim>
				</port>
			</output>
			<blobs>
				<weights offset="344508" size="188928"/>
				<biases offset="533436" size="576"/>
			</blobs>
		</layer>
		<layer id="31" name="relu5_1/sep" precision="FP16" type="ReLU">
			<data negative_slope="0.0"/>
			<input>
				<port id="0">
					<dim>1</dim>
					<dim>288</dim>
					<dim>24</dim>
					<dim>42</dim>
				</port>
			</input>
			<output>
				<port id="1">
					<dim>1</dim>
					<dim>288</dim>
					<dim>24</dim>
					<dim>42</dim>
				</port>
			</output>
		</layer>
		<layer id="32" name="conv5_2/dw" precision="FP16" type="Convolution">
			<data dilations="1,1" group="288" kernel="3,3" output="288" pads_begin="1,1" pads_end="1,1" strides="1,1"/>
			<input>
				<port id="0">
					<dim>1</dim>
					<dim>288</dim>
					<dim>24</dim>
					<dim>42</dim>
				</port>
			</input>
			<output>
				<port id="3">
					<dim>1</dim>
					<dim>288</dim>
					<dim>24</dim>
					<dim>42</dim>
				</port>
			</output>
			<blobs>
				<weights offset="534012" size="5184"/>
				<biases offset="539196" size="576"/>
			</blobs>
		</layer>
		<layer id="33" name="relu5_2/dw" precision="FP16" type="ReLU">
			<data negative_slope="0.0"/>
			<input>
				<port id="0">
					<dim>1</dim>
					<dim>288</dim>
					<dim>24</dim>
					<dim>42</dim>
				</port>
			</input>
			<output>
				<port id="1">
					<dim>1</dim>
					<dim>288</dim>
					<dim>24</dim>
					<dim>42</dim>
				</port>
			</output>
		</layer>
		<layer id="34" name="conv5_2/sep" precision="FP16" type="Convolution">
			<data dilations="1,1" group="1" kernel="1,1" output="288" pads_begin="0,0" pads_end="0,0" strides="1,1"/>
			<input>
				<port id="0">
					<dim>1</dim>
					<dim>288</dim>
					<dim>24</dim>
					<dim>42</dim>
				</port>
			</input>
			<output>
				<port id="3">
					<dim>1</dim>
					<dim>288</dim>
					<dim>24</dim>
					<dim>42</dim>
				</port>
			</output>
			<blobs>
				<weights offset="539772" size="165888"/>
				<biases offset="705660" size="576"/>
			</blobs>
		</layer>
		<layer id="35" name="relu5_2/sep" precision="FP16" type="ReLU">
			<data negative_slope="0.0"/>
			<input>
				<port id="0">
					<dim>1</dim>
					<dim>288</dim>
					<dim>24</dim>
					<dim>42</dim>
				</port>
			</input>
			<output>
				<port id="1">
					<dim>1</dim>
					<dim>288</dim>
					<dim>24</dim>
					<dim>42</dim>
				</port>
			</output>
		</layer>
		<layer id="36" name="conv5_3/dw" precision="FP16" type="Convolution">
			<data dilations="1,1" group="288" kernel="3,3" output="288" pads_begin="1,1" pads_end="1,1" strides="1,1"/>
			<input>
				<port id="0">
					<dim>1</dim>
					<dim>288</dim>
					<dim>24</dim>
					<dim>42</dim>
				</port>
			</input>
			<output>
				<port id="3">
					<dim>1</dim>
					<dim>288</dim>
					<dim>24</dim>
					<dim>42</dim>
				</port>
			</output>
			<blobs>
				<weights offset="706236" size="5184"/>
				<biases offset="711420" size="576"/>
			</blobs>
		</layer>
		<layer id="37" name="relu5_3/dw" precision="FP16" type="ReLU">
			<data negative_slope="0.0"/>
			<input>
				<port id="0">
					<dim>1</dim>
					<dim>288</dim>
					<dim>24</dim>
					<dim>42</dim>
				</port>
			</input>
			<output>
				<port id="1">
					<dim>1</dim>
					<dim>288</dim>
					<dim>24</dim>
					<dim>42</dim>
				</port>
			</output>
		</layer>
		<layer id="38" name="conv5_3/sep" precision="FP16" type="Convolution">
			<data dilations="1,1" group="1" kernel="1,1" output="240" pads_begin="0,0" pads_end="0,0" strides="1,1"/>
			<input>
				<port id="0">
					<dim>1</dim>
					<dim>288</dim>
					<dim>24</dim>
					<dim>42</dim>
				</port>
			</input>
			<output>
				<port id="3">
					<dim>1</dim>
					<dim>240</dim>
					<dim>24</dim>
					<dim>42</dim>
				</port>
			</output>
			<blobs>
				<weights offset="711996" size="138240"/>
				<biases offset="850236" size="480"/>
			</blobs>
		</layer>
		<layer id="39" name="relu5_3/sep" precision="FP16" type="ReLU">
			<data negative_slope="0.0"/>
			<input>
				<port id="0">
					<dim>1</dim>
					<dim>240</dim>
					<dim>24</dim>
					<dim>42</dim>
				</port>
			</input>
			<output>
				<port id="1">
					<dim>1</dim>
					<dim>240</dim>
					<dim>24</dim>
					<dim>42</dim>
				</port>
			</output>
		</layer>
		<layer id="40" name="conv5_4/dw" precision="FP16" type="Convolution">
			<data dilations="1,1" group="240" kernel="3,3" output="240" pads_begin="1,1" pads_end="1,1" strides="1,1"/>
			<input>
				<port id="0">
					<dim>1</dim>
					<dim>240</dim>
					<dim>24</dim>
					<dim>42</dim>
				</port>
			</input>
			<output>
				<port id="3">
					<dim>1</dim>
					<dim>240</dim>
					<dim>24</dim>
					<dim>42</dim>
				</port>
			</output>
			<blobs>
				<weights offset="850716" size="4320"/>
				<biases offset="855036" size="480"/>
			</blobs>
		</layer>
		<layer id="41" name="relu5_4/dw" precision="FP16" type="ReLU">
			<data negative_slope="0.0"/>
			<input>
				<port id="0">
					<dim>1</dim>
					<dim>240</dim>
					<dim>24</dim>
					<dim>42</dim>
				</port>
			</input>
			<output>
				<port id="1">
					<dim>1</dim>
					<dim>240</dim>
					<dim>24</dim>
					<dim>42</dim>
				</port>
			</output>
		</layer>
		<layer id="42" name="conv5_4/sep" precision="FP16" type="Convolution">
			<data dilations="1,1" group="1" kernel="1,1" output="264" pads_begin="0,0" pads_end="0,0" strides="1,1"/>
			<input>
				<port id="0">
					<dim>1</dim>
					<dim>240</dim>
					<dim>24</dim>
					<dim>42</dim>
				</port>
			</input>
			<output>
				<port id="3">
					<dim>1</dim>
					<dim>264</dim>
					<dim>24</dim>
					<dim>42</dim>
				</port>
			</output>
			<blobs>
				<weights offset="855516" size="126720"/>
				<biases offset="982236" size="528"/>
			</blobs>
		</layer>
		<layer id="43" name="relu5_4/sep" precision="FP16" type="ReLU">
			<data negative_slope="0.0"/>
			<input>
				<port id="0">
					<dim>1</dim>
					<dim>264</dim>
					<dim>24</dim>
					<dim>42</dim>
				</port>
			</input>
			<output>
				<port id="1">
					<dim>1</dim>
					<dim>264</dim>
					<dim>24</dim>
					<dim>42</dim>
				</port>
			</output>
		</layer>
		<layer id="44" name="conv5_5/dw" precision="FP16" type="Convolution">
			<data dilations="1,1" group="264" kernel="3,3" output="264" pads_begin="1,1" pads_end="1,1" strides="1,1"/>
			<input>
				<port id="0">
					<dim>1</dim>
					<dim>264</dim>
					<dim>24</dim>
					<dim>42</dim>
				</port>
			</input>
			<output>
				<port id="3">
					<dim>1</dim>
					<dim>264</dim>
					<dim>24</dim>
					<dim>42</dim>
				</port>
			</output>
			<blobs>
				<weights offset="982764" size="4752"/>
				<biases offset="987516" size="528"/>
			</blobs>
		</layer>
		<layer id="45" name="relu5_5/dw" precision="FP16" type="ReLU">
			<data negative_slope="0.0"/>
			<input>
				<port id="0">
					<dim>1</dim>
					<dim>264</dim>
					<dim>24</dim>
					<dim>42</dim>
				</port>
			</input>
			<output>
				<port id="1">
					<dim>1</dim>
					<dim>264</dim>
					<dim>24</dim>
					<dim>42</dim>
				</port>
			</output>
		</layer>
		<layer id="46" name="conv5_5/sep" precision="FP16" type="Convolution">
			<data dilations="1,1" group="1" kernel="1,1" output="192" pads_begin="0,0" pads_end="0,0" strides="1,1"/>
			<input>
				<port id="0">
					<dim>1</dim>
					<dim>264</dim>
					<dim>24</dim>
					<dim>42</dim>
				</port>
			</input>
			<output>
				<port id="3">
					<dim>1</dim>
					<dim>192</dim>
					<dim>24</dim>
					<dim>42</dim>
				</port>
			</output>
			<blobs>
				<weights offset="988044" size="101376"/>
				<biases offset="1089420" size="384"/>
			</blobs>
		</layer>
		<layer id="47" name="relu5_5/sep" precision="FP16" type="ReLU">
			<data negative_slope="0.0"/>
			<input>
				<port id="0">
					<dim>1</dim>
					<dim>192</dim>
					<dim>24</dim>
					<dim>42</dim>
				</port>
			</input>
			<output>
				<port id="1">
					<dim>1</dim>
					<dim>192</dim>
					<dim>24</dim>
					<dim>42</dim>
				</port>
			</output>
		</layer>
		<layer id="48" name="conv4_3_0_norm_mbox_loc" precision="FP16" type="Convolution">
			<data dilations="1,1" group="1" kernel="3,3" output="16" pads_begin="1,1" pads_end="1,1" strides="1,1"/>
			<input>
				<port id="0">
					<dim>1</dim>
					<dim>192</dim>
					<dim>24</dim>
					<dim>42</dim>
				</port>
			</input>
			<output>
				<port id="3">
					<dim>1</dim>
					<dim>16</dim>
					<dim>24</dim>
					<dim>42</dim>
				</port>
			</output>
			<blobs>
				<weights offset="1089804" size="55296"/>
				<biases offset="1145100" size="32"/>
			</blobs>
		</layer>
		<layer id="49" name="conv4_3_0_norm_mbox_loc_perm" precision="FP16" type="Permute">
			<data order="0,2,3,1"/>
			<input>
				<port id="0">
					<dim>1</dim>
					<dim>16</dim>
					<dim>24</dim>
					<dim>42</dim>
				</port>
			</input>
			<output>
				<port id="1">
					<dim>1</dim>
					<dim>24</dim>
					<dim>42</dim>
					<dim>16</dim>
				</port>
			</output>
		</layer>
		<layer id="50" name="conv4_3_0_norm_mbox_loc_flat" precision="FP16" type="Flatten">
			<data axis="1" end_axis="-1"/>
			<input>
				<port id="0">
					<dim>1</dim>
					<dim>24</dim>
					<dim>42</dim>
					<dim>16</dim>
				</port>
			</input>
			<output>
				<port id="1">
					<dim>1</dim>
					<dim>16128</dim>
				</port>
			</output>
		</layer>
		<layer id="51" name="conv4_3_norm_mbox_loc" precision="FP16" type="Convolution">
			<data dilations="1,1" group="1" kernel="3,3" output="16" pads_begin="1,1" pads_end="1,1" strides="1,1"/>
			<input>
				<port id="0">
					<dim>1</dim>
					<dim>192</dim>
					<dim>24</dim>
					<dim>42</dim>
				</port>
			</input>
			<output>
				<port id="3">
					<dim>1</dim>
					<dim>16</dim>
					<dim>24</dim>
					<dim>42</dim>
				</port>
			</output>
			<blobs>
				<weights offset="1145132" size="55296"/>
				<biases offset="1200428" size="32"/>
			</blobs>
		</layer>
		<layer id="52" name="conv4_3_norm_mbox_loc_perm" precision="FP16" type="Permute">
			<data order="0,2,3,1"/>
			<input>
				<port id="0">
					<dim>1</dim>
					<dim>16</dim>
					<dim>24</dim>
					<dim>42</dim>
				</port>
			</input>
			<output>
				<port id="1">
					<dim>1</dim>
					<dim>24</dim>
					<dim>42</dim>
					<dim>16</dim>
				</port>
			</output>
		</layer>
		<layer id="53" name="conv4_3_norm_mbox_loc_flat" precision="FP16" type="Flatten">
			<data axis="1" end_axis="-1"/>
			<input>
				<port id="0">
					<dim>1</dim>
					<dim>24</dim>
					<dim>42</dim>
					<dim>16</dim>
				</port>
			</input>
			<output>
				<port id="1">
					<dim>1</dim>
					<dim>16128</dim>
				</port>
			</output>
		</layer>
		<layer id="54" name="conv5_6/dw" precision="FP16" type="Convolution">
			<data dilations="1,1" group="192" kernel="3,3" output="192" pads_begin="1,1" pads_end="1,1" strides="2,2"/>
			<input>
				<port id="0">
					<dim>1</dim>
					<dim>192</dim>
					<dim>24</dim>
					<dim>42</dim>
				</port>
			</input>
			<output>
				<port id="3">
					<dim>1</dim>
					<dim>192</dim>
					<dim>12</dim>
					<dim>21</dim>
				</port>
			</output>
			<blobs>
				<weights offset="1200460" size="3456"/>
				<biases offset="1203916" size="384"/>
			</blobs>
		</layer>
		<layer id="55" name="relu5_6/dw" precision="FP16" type="ReLU">
			<data negative_slope="0.0"/>
			<input>
				<port id="0">
					<dim>1</dim>
					<dim>192</dim>
					<dim>12</dim>
					<dim>21</dim>
				</port>
			</input>
			<output>
				<port id="1">
					<dim>1</dim>
					<dim>192</dim>
					<dim>12</dim>
					<dim>21</dim>
				</port>
			</output>
		</layer>
		<layer id="56" name="conv5_6/sep" precision="FP16" type="Convolution">
			<data dilations="1,1" group="1" kernel="1,1" output="208" pads_begin="0,0" pads_end="0,0" strides="1,1"/>
			<input>
				<port id="0">
					<dim>1</dim>
					<dim>192</dim>
					<dim>12</dim>
					<dim>21</dim>
				</port>
			</input>
			<output>
				<port id="3">
					<dim>1</dim>
					<dim>208</dim>
					<dim>12</dim>
					<dim>21</dim>
				</port>
			</output>
			<blobs>
				<weights offset="1204300" size="79872"/>
				<biases offset="1284172" size="416"/>
			</blobs>
		</layer>
		<layer id="57" name="relu5_6/sep" precision="FP16" type="ReLU">
			<data negative_slope="0.0"/>
			<input>
				<port id="0">
					<dim>1</dim>
					<dim>208</dim>
					<dim>12</dim>
					<dim>21</dim>
				</port>
			</input>
			<output>
				<port id="1">
					<dim>1</dim>
					<dim>208</dim>
					<dim>12</dim>
					<dim>21</dim>
				</port>
			</output>
		</layer>
		<layer id="58" name="conv6/dw" precision="FP16" type="Convolution">
			<data dilations="1,1" group="208" kernel="3,3" output="208" pads_begin="1,1" pads_end="1,1" strides="1,1"/>
			<input>
				<port id="0">
					<dim>1</dim>
					<dim>208</dim>
					<dim>12</dim>
					<dim>21</dim>
				</port>
			</input>
			<output>
				<port id="3">
					<dim>1</dim>
					<dim>208</dim>
					<dim>12</dim>
					<dim>21</dim>
				</port>
			</output>
			<blobs>
				<weights offset="1284588" size="3744"/>
				<biases offset="1288332" size="416"/>
			</blobs>
		</layer>
		<layer id="59" name="relu6/dw" precision="FP16" type="ReLU">
			<data negative_slope="0.0"/>
			<input>
				<port id="0">
					<dim>1</dim>
					<dim>208</dim>
					<dim>12</dim>
					<dim>21</dim>
				</port>
			</input>
			<output>
				<port id="1">
					<dim>1</dim>
					<dim>208</dim>
					<dim>12</dim>
					<dim>21</dim>
				</port>
			</output>
		</layer>
		<layer id="60" name="conv6/sep" precision="FP16" type="Convolution">
			<data dilations="1,1" group="1" kernel="1,1" output="88" pads_begin="0,0" pads_end="0,0" strides="1,1"/>
			<input>
				<port id="0">
					<dim>1</dim>
					<dim>208</dim>
					<dim>12</dim>
					<dim>21</dim>
				</port>
			</input>
			<output>
				<port id="3">
					<dim>1</dim>
					<dim>88</dim>
					<dim>12</dim>
					<dim>21</dim>
				</port>
			</output>
			<blobs>
				<weights offset="1288748" size="36608"/>
				<biases offset="1325356" size="176"/>
			</blobs>
		</layer>
		<layer id="61" name="relu6/sep" precision="FP16" type="ReLU">
			<data negative_slope="0.0"/>
			<input>
				<port id="0">
					<dim>1</dim>
					<dim>88</dim>
					<dim>12</dim>
					<dim>21</dim>
				</port>
			</input>
			<output>
				<port id="1">
					<dim>1</dim>
					<dim>88</dim>
					<dim>12</dim>
					<dim>21</dim>
				</port>
			</output>
		</layer>
		<layer id="62" name="fc7_0_mbox_loc" precision="FP16" type="Convolution">
			<data dilations="1,1" group="1" kernel="3,3" output="24" pads_begin="1,1" pads_end="1,1" strides="1,1"/>
			<input>
				<port id="0">
					<dim>1</dim>
					<dim>88</dim>
					<dim>12</dim>
					<dim>21</dim>
				</port>
			</input>
			<output>
				<port id="3">
					<dim>1</dim>
					<dim>24</dim>
					<dim>12</dim>
					<dim>21</dim>
				</port>
			</output>
			<blobs>
				<weights offset="1325532" size="38016"/>
				<biases offset="1363548" size="48"/>
			</blobs>
		</layer>
		<layer id="63" name="fc7_0_mbox_loc_perm" precision="FP16" type="Permute">
			<data order="0,2,3,1"/>
			<input>
				<port id="0">
					<dim>1</dim>
					<dim>24</dim>
					<dim>12</dim>
					<dim>21</dim>
				</port>
			</input>
			<output>
				<port id="1">
					<dim>1</dim>
					<dim>12</dim>
					<dim>21</dim>
					<dim>24</dim>
				</port>
			</output>
		</layer>
		<layer id="64" name="fc7_0_mbox_loc_flat" precision="FP16" type="Flatten">
			<data axis="1" end_axis="-1"/>
			<input>
				<port id="0">
					<dim>1</dim>
					<dim>12</dim>
					<dim>21</dim>
					<dim>24</dim>
				</port>
			</input>
			<output>
				<port id="1">
					<dim>1</dim>
					<dim>6048</dim>
				</port>
			</output>
		</layer>
		<layer id="65" name="fc7_mbox_loc" precision="FP16" type="Convolution">
			<data dilations="1,1" group="1" kernel="3,3" output="24" pads_begin="1,1" pads_end="1,1" strides="1,1"/>
			<input>
				<port id="0">
					<dim>1</dim>
					<dim>88</dim>
					<dim>12</dim>
					<dim>21</dim>
				</port>
			</input>
			<output>
				<port id="3">
					<dim>1</dim>
					<dim>24</dim>
					<dim>12</dim>
					<dim>21</dim>
				</port>
			</output>
			<blobs>
				<weights offset="1363596" size="38016"/>
				<biases offset="1401612" size="48"/>
			</blobs>
		</layer>
		<layer id="66" name="fc7_mbox_loc_perm" precision="FP16" type="Permute">
			<data order="0,2,3,1"/>
			<input>
				<port id="0">
					<dim>1</dim>
					<dim>24</dim>
					<dim>12</dim>
					<dim>21</dim>
				</port>
			</input>
			<output>
				<port id="1">
					<dim>1</dim>
					<dim>12</dim>
					<dim>21</dim>
					<dim>24</dim>
				</port>
			</output>
		</layer>
		<layer id="67" name="fc7_mbox_loc_flat" precision="FP16" type="Flatten">
			<data axis="1" end_axis="-1"/>
			<input>
				<port id="0">
					<dim>1</dim>
					<dim>12</dim>
					<dim>21</dim>
					<dim>24</dim>
				</port>
			</input>
			<output>
				<port id="1">
					<dim>1</dim>
					<dim>6048</dim>
				</port>
			</output>
		</layer>
		<layer id="68" name="conv6_1" precision="FP16" type="Convolution">
			<data dilations="1,1" group="1" kernel="1,1" output="96" pads_begin="0,0" pads_end="0,0" strides="1,1"/>
			<input>
				<port id="0">
					<dim>1</dim>
					<dim>88</dim>
					<dim>12</dim>
					<dim>21</dim>
				</port>
			</input>
			<output>
				<port id="3">
					<dim>1</dim>
					<dim>96</dim>
					<dim>12</dim>
					<dim>21</dim>
				</port>
			</output>
			<blobs>
				<weights offset="1401660" size="16896"/>
				<biases offset="1418556" size="192"/>
			</blobs>
		</layer>
		<layer id="69" name="relu6_1" precision="FP16" type="ReLU">
			<data negative_slope="0.0"/>
			<input>
				<port id="0">
					<dim>1</dim>
					<dim>96</dim>
					<dim>12</dim>
					<dim>21</dim>
				</port>
			</input>
			<output>
				<port id="1">
					<dim>1</dim>
					<dim>96</dim>
					<dim>12</dim>
					<dim>21</dim>
				</port>
			</output>
		</layer>
		<layer id="70" name="conv6_2/dw" precision="FP16" type="Convolution">
			<data dilations="1,1" group="96" kernel="3,3" output="96" pads_begin="1,1" pads_end="1,1" strides="2,2"/>
			<input>
				<port id="0">
					<dim>1</dim>
					<dim>96</dim>
					<dim>12</dim>
					<dim>21</dim>
				</port>
			</input>
			<output>
				<port id="3">
					<dim>1</dim>
					<dim>96</dim>
					<dim>6</dim>
					<dim>11</dim>
				</port>
			</output>
			<blobs>
				<weights offset="1418748" size="1728"/>
				<biases offset="1420476" size="192"/>
			</blobs>
		</layer>
		<layer id="71" name="relu6_2/dw" precision="FP16" type="ReLU">
			<data negative_slope="0.0"/>
			<input>
				<port id="0">
					<dim>1</dim>
					<dim>96</dim>
					<dim>6</dim>
					<dim>11</dim>
				</port>
			</input>
			<output>
				<port id="1">
					<dim>1</dim>
					<dim>96</dim>
					<dim>6</dim>
					<dim>11</dim>
				</port>
			</output>
		</layer>
		<layer id="72" name="conv6_2" precision="FP16" type="Convolution">
			<data dilations="1,1" group="1" kernel="1,1" output="152" pads_begin="0,0" pads_end="0,0" strides="1,1"/>
			<input>
				<port id="0">
					<dim>1</dim>
					<dim>96</dim>
					<dim>6</dim>
					<dim>11</dim>
				</port>
			</input>
			<output>
				<port id="3">
					<dim>1</dim>
					<dim>152</dim>
					<dim>6</dim>
					<dim>11</dim>
				</port>
			</output>
			<blobs>
				<weights offset="1420668" size="29184"/>
				<biases offset="1449852" size="304"/>
			</blobs>
		</layer>
		<layer id="73" name="relu6_2" precision="FP16" type="ReLU">
			<data negative_slope="0.0"/>
			<input>
				<port id="0">
					<dim>1</dim>
					<dim>152</dim>
					<dim>6</dim>
					<dim>11</dim>
				</port>
			</input>
			<output>
				<port id="1">
					<dim>1</dim>
					<dim>152</dim>
					<dim>6</dim>
					<dim>11</dim>
				</port>
			</output>
		</layer>
		<layer id="74" name="conv6_2_mbox_loc" precision="FP16" type="Convolution">
			<data dilations="1,1" group="1" kernel="3,3" output="24" pads_begin="1,1" pads_end="1,1" strides="1,1"/>
			<input>
				<port id="0">
					<dim>1</dim>
					<dim>152</dim>
					<dim>6</dim>
					<dim>11</dim>
				</port>
			</input>
			<output>
				<port id="3">
					<dim>1</dim>
					<dim>24</dim>
					<dim>6</dim>
					<dim>11</dim>
				</port>
			</output>
			<blobs>
				<weights offset="1450156" size="65664"/>
				<biases offset="1515820" size="48"/>
			</blobs>
		</layer>
		<layer id="75" name="conv6_2_mbox_loc_perm" precision="FP16" type="Permute">
			<data order="0,2,3,1"/>
			<input>
				<port id="0">
					<dim>1</dim>
					<dim>24</dim>
					<dim>6</dim>
					<dim>11</dim>
				</port>
			</input>
			<output>
				<port id="1">
					<dim>1</dim>
					<dim>6</dim>
					<dim>11</dim>
					<dim>24</dim>
				</port>
			</output>
		</layer>
		<layer id="76" name="conv6_2_mbox_loc_flat" precision="FP16" type="Flatten">
			<data axis="1" end_axis="-1"/>
			<input>
				<port id="0">
					<dim>1</dim>
					<dim>6</dim>
					<dim>11</dim>
					<dim>24</dim>
				</port>
			</input>
			<output>
				<port id="1">
					<dim>1</dim>
					<dim>1584</dim>
				</port>
			</output>
		</layer>
		<layer id="77" name="conv7_1" precision="FP16" type="Convolution">
			<data dilations="1,1" group="1" kernel="1,1" output="112" pads_begin="0,0" pads_end="0,0" strides="1,1"/>
			<input>
				<port id="0">
					<dim>1</dim>
					<dim>152</dim>
					<dim>6</dim>
					<dim>11</dim>
				</port>
			</input>
			<output>
				<port id="3">
					<dim>1</dim>
					<dim>112</dim>
					<dim>6</dim>
					<dim>11</dim>
				</port>
			</output>
			<blobs>
				<weights offset="1515868" size="34048"/>
				<biases offset="1549916" size="224"/>
			</blobs>
		</layer>
		<layer id="78" name="relu7_1" precision="FP16" type="ReLU">
			<data negative_slope="0.0"/>
			<input>
				<port id="0">
					<dim>1</dim>
					<dim>112</dim>
					<dim>6</dim>
					<dim>11</dim>
				</port>
			</input>
			<output>
				<port id="1">
					<dim>1</dim>
					<dim>112</dim>
					<dim>6</dim>
					<dim>11</dim>
				</port>
			</output>
		</layer>
		<layer id="79" name="conv7_2/dw" precision="FP16" type="Convolution">
			<data dilations="1,1" group="112" kernel="3,3" output="112" pads_begin="1,1" pads_end="1,1" strides="2,2"/>
			<input>
				<port id="0">
					<dim>1</dim>
					<dim>112</dim>
					<dim>6</dim>
					<dim>11</dim>
				</port>
			</input>
			<output>
				<port id="3">
					<dim>1</dim>
					<dim>112</dim>
					<dim>3</dim>
					<dim>6</dim>
				</port>
			</output>
			<blobs>
				<weights offset="1550140" size="2016"/>
				<biases offset="1552156" size="224"/>
			</blobs>
		</layer>
		<layer id="80" name="relu7_2/dw" precision="FP16" type="ReLU">
			<data negative_slope="0.0"/>
			<input>
				<port id="0">
					<dim>1</dim>
					<dim>112</dim>
					<dim>3</dim>
					<dim>6</dim>
				</port>
			</input>
			<output>
				<port id="1">
					<dim>1</dim>
					<dim>112</dim>
					<dim>3</dim>
					<dim>6</dim>
				</port>
			</output>
		</layer>
		<layer id="81" name="conv7_2" precision="FP16" type="Convolution">
			<data dilations="1,1" group="1" kernel="1,1" output="200" pads_begin="0,0" pads_end="0,0" strides="1,1"/>
			<input>
				<port id="0">
					<dim>1</dim>
					<dim>112</dim>
					<dim>3</dim>
					<dim>6</dim>
				</port>
			</input>
			<output>
				<port id="3">
					<dim>1</dim>
					<dim>200</dim>
					<dim>3</dim>
					<dim>6</dim>
				</port>
			</output>
			<blobs>
				<weights offset="1552380" size="44800"/>
				<biases offset="1597180" size="400"/>
			</blobs>
		</layer>
		<layer id="82" name="relu7_2" precision="FP16" type="ReLU">
			<data negative_slope="0.0"/>
			<input>
				<port id="0">
					<dim>1</dim>
					<dim>200</dim>
					<dim>3</dim>
					<dim>6</dim>
				</port>
			</input>
			<output>
				<port id="1">
					<dim>1</dim>
					<dim>200</dim>
					<dim>3</dim>
					<dim>6</dim>
				</port>
			</output>
		</layer>
		<layer id="83" name="conv7_2_mbox_loc" precision="FP16" type="Convolution">
			<data dilations="1,1" group="1" kernel="3,3" output="24" pads_begin="1,1" pads_end="1,1" strides="1,1"/>
			<input>
				<port id="0">
					<dim>1</dim>
					<dim>200</dim>
					<dim>3</dim>
					<dim>6</dim>
				</port>
			</input>
			<output>
				<port id="3">
					<dim>1</dim>
					<dim>24</dim>
					<dim>3</dim>
					<dim>6</dim>
				</port>
			</output>
			<blobs>
				<weights offset="1597580" size="86400"/>
				<biases offset="1683980" size="48"/>
			</blobs>
		</layer>
		<layer id="84" name="conv7_2_mbox_loc_perm" precision="FP16" type="Permute">
			<data order="0,2,3,1"/>
			<input>
				<port id="0">
					<dim>1</dim>
					<dim>24</dim>
					<dim>3</dim>
					<dim>6</dim>
				</port>
			</input>
			<output>
				<port id="1">
					<dim>1</dim>
					<dim>3</dim>
					<dim>6</dim>
					<dim>24</dim>
				</port>
			</output>
		</layer>
		<layer id="85" name="conv7_2_mbox_loc_flat" precision="FP16" type="Flatten">
			<data axis="1" end_axis="-1"/>
			<input>
				<port id="0">
					<dim>1</dim>
					<dim>3</dim>
					<dim>6</dim>
					<dim>24</dim>
				</port>
			</input>
			<output>
				<port id="1">
					<dim>1</dim>
					<dim>432</dim>
				</port>
			</output>
		</layer>
		<layer id="86" name="conv8_1" precision="FP16" type="Convolution">
			<data dilations="1,1" group="1" kernel="1,1" output="120" pads_begin="0,0" pads_end="0,0" strides="1,1"/>
			<input>
				<port id="0">
					<dim>1</dim>
					<dim>200</dim>
					<dim>3</dim>
					<dim>6</dim>
				</port>
			</input>
			<output>
				<port id="3">
					<dim>1</dim>
					<dim>120</dim>
					<dim>3</dim>
					<dim>6</dim>
				</port>
			</output>
			<blobs>
				<weights offset="1684028" size="48000"/>
				<biases offset="1732028" size="240"/>
			</blobs>
		</layer>
		<layer id="87" name="relu8_1" precision="FP16" type="ReLU">
			<data negative_slope="0.0"/>
			<input>
				<port id="0">
					<dim>1</dim>
					<dim>120</dim>
					<dim>3</dim>
					<dim>6</dim>
				</port>
			</input>
			<output>
				<port id="1">
					<dim>1</dim>
					<dim>120</dim>
					<dim>3</dim>
					<dim>6</dim>
				</port>
			</output>
		</layer>
		<layer id="88" name="conv8_2/dw" precision="FP16" type="Convolution">
			<data dilations="1,1" group="120" kernel="3,3" output="120" pads_begin="1,1" pads_end="1,1" strides="2,2"/>
			<input>
				<port id="0">
					<dim>1</dim>
					<dim>120</dim>
					<dim>3</dim>
					<dim>6</dim>
				</port>
			</input>
			<output>
				<port id="3">
					<dim>1</dim>
					<dim>120</dim>
					<dim>2</dim>
					<dim>3</dim>
				</port>
			</output>
			<blobs>
				<weights offset="1732268" size="2160"/>
				<biases offset="1734428" size="240"/>
			</blobs>
		</layer>
		<layer id="89" name="relu8_2/dw" precision="FP16" type="ReLU">
			<data negative_slope="0.0"/>
			<input>
				<port id="0">
					<dim>1</dim>
					<dim>120</dim>
					<dim>2</dim>
					<dim>3</dim>
				</port>
			</input>
			<output>
				<port id="1">
					<dim>1</dim>
					<dim>120</dim>
					<dim>2</dim>
					<dim>3</dim>
				</port>
			</output>
		</layer>
		<layer id="90" name="conv8_2" precision="FP16" type="Convolution">
			<data dilations="1,1" group="1" kernel="1,1" output="224" pads_begin="0,0" pads_end="0,0" strides="1,1"/>
			<input>
				<port id="0">
					<dim>1</dim>
					<dim>120</dim>
					<dim>2</dim>
					<dim>3</dim>
				</port>
			</input>
			<output>
				<port id="3">
					<dim>1</dim>
					<dim>224</dim>
					<dim>2</dim>
					<dim>3</dim>
				</port>
			</output>
			<blobs>
				<weights offset="1734668" size="53760"/>
				<biases offset="1788428" size="448"/>
			</blobs>
		</layer>
		<layer id="91" name="relu8_2" precision="FP16" type="ReLU">
			<data negative_slope="0.0"/>
			<input>
				<port id="0">
					<dim>1</dim>
					<dim>224</dim>
					<dim>2</dim>
					<dim>3</dim>
				</port>
			</input>
			<output>
				<port id="1">
					<dim>1</dim>
					<dim>224</dim>
					<dim>2</dim>
					<dim>3</dim>
				</port>
			</output>
		</layer>
		<layer id="92" name="conv8_2_mbox_loc" precision="FP16" type="Convolution">
			<data dilations="1,1" group="1" kernel="3,3" output="16" pads_begin="1,1" pads_end="1,1" strides="1,1"/>
			<input>
				<port id="0">
					<dim>1</dim>
					<dim>224</dim>
					<dim>2</dim>
					<dim>3</dim>
				</port>
			</input>
			<output>
				<port id="3">
					<dim>1</dim>
					<dim>16</dim>
					<dim>2</dim>
					<dim>3</dim>
				</port>
			</output>
			<blobs>
				<weights offset="1788876" size="64512"/>
				<biases offset="1853388" size="32"/>
			</blobs>
		</layer>
		<layer id="93" name="conv8_2_mbox_loc_perm" precision="FP16" type="Permute">
			<data order="0,2,3,1"/>
			<input>
				<port id="0">
					<dim>1</dim>
					<dim>16</dim>
					<dim>2</dim>
					<dim>3</dim>
				</port>
			</input>
			<output>
				<port id="1">
					<dim>1</dim>
					<dim>2</dim>
					<dim>3</dim>
					<dim>16</dim>
				</port>
			</output>
		</layer>
		<layer id="94" name="conv8_2_mbox_loc_flat" precision="FP16" type="Flatten">
			<data axis="1" end_axis="-1"/>
			<input>
				<port id="0">
					<dim>1</dim>
					<dim>2</dim>
					<dim>3</dim>
					<dim>16</dim>
				</port>
			</input>
			<output>
				<port id="1">
					<dim>1</dim>
					<dim>96</dim>
				</port>
			</output>
		</layer>
		<layer id="95" name="conv9_1" precision="FP16" type="Convolution">
			<data dilations="1,1" group="1" kernel="1,1" output="64" pads_begin="0,0" pads_end="0,0" strides="1,1"/>
			<input>
				<port id="0">
					<dim>1</dim>
					<dim>224</dim>
					<dim>2</dim>
					<dim>3</dim>
				</port>
			</input>
			<output>
				<port id="3">
					<dim>1</dim>
					<dim>64</dim>
					<dim>2</dim>
					<dim>3</dim>
				</port>
			</output>
			<blobs>
				<weights offset="1853420" size="28672"/>
				<biases offset="1882092" size="128"/>
			</blobs>
		</layer>
		<layer id="96" name="relu9_1" precision="FP16" type="ReLU">
			<data negative_slope="0.0"/>
			<input>
				<port id="0">
					<dim>1</dim>
					<dim>64</dim>
					<dim>2</dim>
					<dim>3</dim>
				</port>
			</input>
			<output>
				<port id="1">
					<dim>1</dim>
					<dim>64</dim>
					<dim>2</dim>
					<dim>3</dim>
				</port>
			</output>
		</layer>
		<layer id="97" name="conv9_2/dw" precision="FP16" type="Convolution">
			<data dilations="1,1" group="64" kernel="3,3" output="64" pads_begin="1,1" pads_end="1,1" strides="2,2"/>
			<input>
				<port id="0">
					<dim>1</dim>
					<dim>64</dim>
					<dim>2</dim>
					<dim>3</dim>
				</port>
			</input>
			<output>
				<port id="3">
					<dim>1</dim>
					<dim>64</dim>
					<dim>1</dim>
					<dim>2</dim>
				</port>
			</output>
			<blobs>
				<weights offset="1882220" size="1152"/>
				<biases offset="1883372" size="128"/>
			</blobs>
		</layer>
		<layer id="98" name="relu9_2/dw" precision="FP16" type="ReLU">
			<data negative_slope="0.0"/>
			<input>
				<port id="0">
					<dim>1</dim>
					<dim>64</dim>
					<dim>1</dim>
					<dim>2</dim>
				</port>
			</input>
			<output>
				<port id="1">
					<dim>1</dim>
					<dim>64</dim>
					<dim>1</dim>
					<dim>2</dim>
				</port>
			</output>
		</layer>
		<layer id="99" name="conv9_2" precision="FP16" type="Convolution">
			<data dilations="1,1" group="1" kernel="1,1" output="128" pads_begin="0,0" pads_end="0,0" strides="1,1"/>
			<input>
				<port id="0">
					<dim>1</dim>
					<dim>64</dim>
					<dim>1</dim>
					<dim>2</dim>
				</port>
			</input>
			<output>
				<port id="3">
					<dim>1</dim>
					<dim>128</dim>
					<dim>1</dim>
					<dim>2</dim>
				</port>
			</output>
			<blobs>
				<weights offset="1883500" size="16384"/>
				<biases offset="1899884" size="256"/>
			</blobs>
		</layer>
		<layer id="100" name="relu9_2" precision="FP16" type="ReLU">
			<data negative_slope="0.0"/>
			<input>
				<port id="0">
					<dim>1</dim>
					<dim>128</dim>
					<dim>1</dim>
					<dim>2</dim>
				</port>
			</input>
			<output>
				<port id="1">
					<dim>1</dim>
					<dim>128</dim>
					<dim>1</dim>
					<dim>2</dim>
				</port>
			</output>
		</layer>
		<layer id="101" name="conv9_2_mbox_loc" precision="FP16" type="Convolution">
			<data dilations="1,1" group="1" kernel="3,3" output="16" pads_begin="1,1" pads_end="1,1" strides="1,1"/>
			<input>
				<port id="0">
					<dim>1</dim>
					<dim>128</dim>
					<dim>1</dim>
					<dim>2</dim>
				</port>
			</input>
			<output>
				<port id="3">
					<dim>1</dim>
					<dim>16</dim>
					<dim>1</dim>
					<dim>2</dim>
				</port>
			</output>
			<blobs>
				<weights offset="1900140" size="36864"/>
				<biases offset="1937004" size="32"/>
			</blobs>
		</layer>
		<layer id="102" name="conv9_2_mbox_loc_perm" precision="FP16" type="Permute">
			<data order="0,2,3,1"/>
			<input>
				<port id="0">
					<dim>1</dim>
					<dim>16</dim>
					<dim>1</dim>
					<dim>2</dim>
				</port>
			</input>
			<output>
				<port id="1">
					<dim>1</dim>
					<dim>1</dim>
					<dim>2</dim>
					<dim>16</dim>
				</port>
			</output>
		</layer>
		<layer id="103" name="conv9_2_mbox_loc_flat" precision="FP16" type="Flatten">
			<data axis="1" end_axis="-1"/>
			<input>
				<port id="0">
					<dim>1</dim>
					<dim>1</dim>
					<dim>2</dim>
					<dim>16</dim>
				</port>
			</input>
			<output>
				<port id="1">
					<dim>1</dim>
					<dim>32</dim>
				</port>
			</output>
		</layer>
		<layer id="104" name="mbox_loc" precision="FP16" type="Concat">
			<data axis="1"/>
			<input>
				<port id="0">
					<dim>1</dim>
					<dim>16128</dim>
				</port>
				<port id="1">
					<dim>1</dim>
					<dim>16128</dim>
				</port>
				<port id="2">
					<dim>1</dim>
					<dim>6048</dim>
				</port>
				<port id="3">
					<dim>1</dim>
					<dim>6048</dim>
				</port>
				<port id="4">
					<dim>1</dim>
					<dim>1584</dim>
				</port>
				<port id="5">
					<dim>1</dim>
					<dim>432</dim>
				</port>
				<port id="6">
					<dim>1</dim>
					<dim>96</dim>
				</port>
				<port id="7">
					<dim>1</dim>
					<dim>32</dim>
				</port>
			</input>
			<output>
				<port id="8">
					<dim>1</dim>
					<dim>46496</dim>
				</port>
			</output>
		</layer>
		<layer id="105" name="conv4_3_0_norm_mbox_conf" precision="FP16" type="Convolution">
			<data dilations="1,1" group="1" kernel="3,3" output="8" pads_begin="1,1" pads_end="1,1" strides="1,1"/>
			<input>
				<port id="0">
					<dim>1</dim>
					<dim>192</dim>
					<dim>24</dim>
					<dim>42</dim>
				</port>
			</input>
			<output>
				<port id="3">
					<dim>1</dim>
					<dim>8</dim>
					<dim>24</dim>
					<dim>42</dim>
				</port>
			</output>
			<blobs>
				<weights offset="1937036" size="27648"/>
				<biases offset="1964684" size="16"/>
			</blobs>
		</layer>
		<layer id="106" name="conv4_3_0_norm_mbox_conf_perm" precision="FP16" type="Permute">
			<data order="0,2,3,1"/>
			<input>
				<port id="0">
					<dim>1</dim>
					<dim>8</dim>
					<dim>24</dim>
					<dim>42</dim>
				</port>
			</input>
			<output>
				<port id="1">
					<dim>1</dim>
					<dim>24</dim>
					<dim>42</dim>
					<dim>8</dim>
				</port>
			</output>
		</layer>
		<layer id="107" name="conv4_3_0_norm_mbox_conf_flat" precision="FP16" type="Flatten">
			<data axis="1" end_axis="-1"/>
			<input>
				<port id="0">
					<dim>1</dim>
					<dim>24</dim>
					<dim>42</dim>
					<dim>8</dim>
				</port>
			</input>
			<output>
				<port id="1">
					<dim>1</dim>
					<dim>8064</dim>
				</port>
			</output>
		</layer>
		<layer id="108" name="conv4_3_norm_mbox_conf" precision="FP16" type="Convolution">
			<data dilations="1,1" group="1" kernel="3,3" output="8" pads_begin="1,1" pads_end="1,1" strides="1,1"/>
			<input>
				<port id="0">
					<dim>1</dim>
					<dim>192</dim>
					<dim>24</dim>
					<dim>42</dim>
				</port>
			</input>
			<output>
				<port id="3">
					<dim>1</dim>
					<dim>8</dim>
					<dim>24</dim>
					<dim>42</dim>
				</port>
			</output>
			<blobs>
				<weights offset="1964700" size="27648"/>
				<biases offset="1992348" size="16"/>
			</blobs>
		</layer>
		<layer id="109" name="conv4_3_norm_mbox_conf_perm" precision="FP16" type="Permute">
			<data order="0,2,3,1"/>
			<input>
				<port id="0">
					<dim>1</dim>
					<dim>8</dim>
					<dim>24</dim>
					<dim>42</dim>
				</port>
			</input>
			<output>
				<port id="1">
					<dim>1</dim>
					<dim>24</dim>
					<dim>42</dim>
					<dim>8</dim>
				</port>
			</output>
		</layer>
		<layer id="110" name="conv4_3_norm_mbox_conf_flat" precision="FP16" type="Flatten">
			<data axis="1" end_axis="-1"/>
			<input>
				<port id="0">
					<dim>1</dim>
					<dim>24</dim>
					<dim>42</dim>
					<dim>8</dim>
				</port>
			</input>
			<output>
				<port id="1">
					<dim>1</dim>
					<dim>8064</dim>
				</port>
			</output>
		</layer>
		<layer id="111" name="fc7_0_mbox_conf" precision="FP16" type="Convolution">
			<data dilations="1,1" group="1" kernel="3,3" output="12" pads_begin="1,1" pads_end="1,1" strides="1,1"/>
			<input>
				<port id="0">
					<dim>1</dim>
					<dim>88</dim>
					<dim>12</dim>
					<dim>21</dim>
				</port>
			</input>
			<output>
				<port id="3">
					<dim>1</dim>
					<dim>12</dim>
					<dim>12</dim>
					<dim>21</dim>
				</port>
			</output>
			<blobs>
				<weights offset="1992364" size="19008"/>
				<biases offset="2011372" size="24"/>
			</blobs>
		</layer>
		<layer id="112" name="fc7_0_mbox_conf_perm" precision="FP16" type="Permute">
			<data order="0,2,3,1"/>
			<input>
				<port id="0">
					<dim>1</dim>
					<dim>12</dim>
					<dim>12</dim>
					<dim>21</dim>
				</port>
			</input>
			<output>
				<port id="1">
					<dim>1</dim>
					<dim>12</dim>
					<dim>21</dim>
					<dim>12</dim>
				</port>
			</output>
		</layer>
		<layer id="113" name="fc7_0_mbox_conf_flat" precision="FP16" type="Flatten">
			<data axis="1" end_axis="-1"/>
			<input>
				<port id="0">
					<dim>1</dim>
					<dim>12</dim>
					<dim>21</dim>
					<dim>12</dim>
				</port>
			</input>
			<output>
				<port id="1">
					<dim>1</dim>
					<dim>3024</dim>
				</port>
			</output>
		</layer>
		<layer id="114" name="fc7_mbox_conf" precision="FP16" type="Convolution">
			<data dilations="1,1" group="1" kernel="3,3" output="12" pads_begin="1,1" pads_end="1,1" strides="1,1"/>
			<input>
				<port id="0">
					<dim>1</dim>
					<dim>88</dim>
					<dim>12</dim>
					<dim>21</dim>
				</port>
			</input>
			<output>
				<port id="3">
					<dim>1</dim>
					<dim>12</dim>
					<dim>12</dim>
					<dim>21</dim>
				</port>
			</output>
			<blobs>
				<weights offset="2011396" size="19008"/>
				<biases offset="2030404" size="24"/>
			</blobs>
		</layer>
		<layer id="115" name="fc7_mbox_conf_perm" precision="FP16" type="Permute">
			<data order="0,2,3,1"/>
			<input>
				<port id="0">
					<dim>1</dim>
					<dim>12</dim>
					<dim>12</dim>
					<dim>21</dim>
				</port>
			</input>
			<output>
				<port id="1">
					<dim>1</dim>
					<dim>12</dim>
					<dim>21</dim>
					<dim>12</dim>
				</port>
			</output>
		</layer>
		<layer id="116" name="fc7_mbox_conf_flat" precision="FP16" type="Flatten">
			<data axis="1" end_axis="-1"/>
			<input>
				<port id="0">
					<dim>1</dim>
					<dim>12</dim>
					<dim>21</dim>
					<dim>12</dim>
				</port>
			</input>
			<output>
				<port id="1">
					<dim>1</dim>
					<dim>3024</dim>
				</port>
			</output>
		</layer>
		<layer id="117" name="conv6_2_mbox_conf" precision="FP16" type="Convolution">
			<data dilations="1,1" group="1" kernel="3,3" output="12" pads_begin="1,1" pads_end="1,1" strides="1,1"/>
			<input>
				<port id="0">
					<dim>1</dim>
					<dim>152</dim>
					<dim>6</dim>
					<dim>11</dim>
				</port>
			</input>
			<output>
				<port id="3">
					<dim>1</dim>
					<dim>12</dim>
					<dim>6</dim>
					<dim>11</dim>
				</port>
			</output>
			<blobs>
				<weights offset="2030428" size="32832"/>
				<biases offset="2063260" size="24"/>
			</blobs>
		</layer>
		<layer id="118" name="conv6_2_mbox_conf_perm" precision="FP16" type="Permute">
			<data order="0,2,3,1"/>
			<input>
				<port id="0">
					<dim>1</dim>
					<dim>12</dim>
					<dim>6</dim>
					<dim>11</dim>
				</port>
			</input>
			<output>
				<port id="1">
					<dim>1</dim>
					<dim>6</dim>
					<dim>11</dim>
					<dim>12</dim>
				</port>
			</output>
		</layer>
		<layer id="119" name="conv6_2_mbox_conf_flat" precision="FP16" type="Flatten">
			<data axis="1" end_axis="-1"/>
			<input>
				<port id="0">
					<dim>1</dim>
					<dim>6</dim>
					<dim>11</dim>
					<dim>12</dim>
				</port>
			</input>
			<output>
				<port id="1">
					<dim>1</dim>
					<dim>792</dim>
				</port>
			</output>
		</layer>
		<layer id="120" name="conv7_2_mbox_conf" precision="FP16" type="Convolution">
			<data dilations="1,1" group="1" kernel="3,3" output="12" pads_begin="1,1" pads_end="1,1" strides="1,1"/>
			<input>
				<port id="0">
					<dim>1</dim>
					<dim>200</dim>
					<dim>3</dim>
					<dim>6</dim>
				</port>
			</input>
			<output>
				<port id="3">
					<dim>1</dim>
					<dim>12</dim>
					<dim>3</dim>
					<dim>6</dim>
				</port>
			</output>
			<blobs>
				<weights offset="2063284" size="43200"/>
				<biases offset="2106484" size="24"/>
			</blobs>
		</layer>
		<layer id="121" name="conv7_2_mbox_conf_perm" precision="FP16" type="Permute">
			<data order="0,2,3,1"/>
			<input>
				<port id="0">
					<dim>1</dim>
					<dim>12</dim>
					<dim>3</dim>
					<dim>6</dim>
				</port>
			</input>
			<output>
				<port id="1">
					<dim>1</dim>
					<dim>3</dim>
					<dim>6</dim>
					<dim>12</dim>
				</port>
			</output>
		</layer>
		<layer id="122" name="conv7_2_mbox_conf_flat" precision="FP16" type="Flatten">
			<data axis="1" end_axis="-1"/>
			<input>
				<port id="0">
					<dim>1</dim>
					<dim>3</dim>
					<dim>6</dim>
					<dim>12</dim>
				</port>
			</input>
			<output>
				<port id="1">
					<dim>1</dim>
					<dim>216</dim>
				</port>
			</output>
		</layer>
		<layer id="123" name="conv8_2_mbox_conf" precision="FP16" type="Convolution">
			<data dilations="1,1" group="1" kernel="3,3" output="8" pads_begin="1,1" pads_end="1,1" strides="1,1"/>
			<input>
				<port id="0">
					<dim>1</dim>
					<dim>224</dim>
					<dim>2</dim>
					<dim>3</dim>
				</port>
			</input>
			<output>
				<port id="3">
					<dim>1</dim>
					<dim>8</dim>
					<dim>2</dim>
					<dim>3</dim>
				</port>
			</output>
			<blobs>
				<weights offset="2106508" size="32256"/>
				<biases offset="2138764" size="16"/>
			</blobs>
		</layer>
		<layer id="124" name="conv8_2_mbox_conf_perm" precision="FP16" type="Permute">
			<data order="0,2,3,1"/>
			<input>
				<port id="0">
					<dim>1</dim>
					<dim>8</dim>
					<dim>2</dim>
					<dim>3</dim>
				</port>
			</input>
			<output>
				<port id="1">
					<dim>1</dim>
					<dim>2</dim>
					<dim>3</dim>
					<dim>8</dim>
				</port>
			</output>
		</layer>
		<layer id="125" name="conv8_2_mbox_conf_flat" precision="FP16" type="Flatten">
			<data axis="1" end_axis="-1"/>
			<input>
				<port id="0">
					<dim>1</dim>
					<dim>2</dim>
					<dim>3</dim>
					<dim>8</dim>
				</port>
			</input>
			<output>
				<port id="1">
					<dim>1</dim>
					<dim>48</dim>
				</port>
			</output>
		</layer>
		<layer id="126" name="conv9_2_mbox_conf" precision="FP16" type="Convolution">
			<data dilations="1,1" group="1" kernel="3,3" output="8" pads_begin="1,1" pads_end="1,1" strides="1,1"/>
			<input>
				<port id="0">
					<dim>1</dim>
					<dim>128</dim>
					<dim>1</dim>
					<dim>2</dim>
				</port>
			</input>
			<output>
				<port id="3">
					<dim>1</dim>
					<dim>8</dim>
					<dim>1</dim>
					<dim>2</dim>
				</port>
			</output>
			<blobs>
				<weights offset="2138780" size="18432"/>
				<biases offset="2157212" size="16"/>
			</blobs>
		</layer>
		<layer id="127" name="conv9_2_mbox_conf_perm" precision="FP16" type="Permute">
			<data order="0,2,3,1"/>
			<input>
				<port id="0">
					<dim>1</dim>
					<dim>8</dim>
					<dim>1</dim>
					<dim>2</dim>
				</port>
			</input>
			<output>
				<port id="1">
					<dim>1</dim>
					<dim>1</dim>
					<dim>2</dim>
					<dim>8</dim>
				</port>
			</output>
		</layer>
		<layer id="128" name="conv9_2_mbox_conf_flat" precision="FP16" type="Flatten">
			<data axis="1" end_axis="-1"/>
			<input>
				<port id="0">
					<dim>1</dim>
					<dim>1</dim>
					<dim>2</dim>
					<dim>8</dim>
				</port>
			</input>
			<output>
				<port id="1">
					<dim>1</dim>
					<dim>16</dim>
				</port>
			</output>
		</layer>
		<layer id="129" name="mbox_conf" precision="FP16" type="Concat">
			<data axis="1"/>
			<input>
				<port id="0">
					<dim>1</dim>
					<dim>8064</dim>
				</port>
				<port id="1">
					<dim>1</dim>
					<dim>8064</dim>
				</port>
				<port id="2">
					<dim>1</dim>
					<dim>3024</dim>
				</port>
				<port id="3">
					<dim>1</dim>
					<dim>3024</dim>
				</port>
				<port id="4">
					<dim>1</dim>
					<dim>792</dim>
				</port>
				<port id="5">
					<dim>1</dim>
					<dim>216</dim>
				</port>
				<port id="6">
					<dim>1</dim>
					<dim>48</dim>
				</port>
				<port id="7">
					<dim>1</dim>
					<dim>16</dim>
				</port>
			</input>
			<output>
				<port id="8">
					<dim>1</dim>
					<dim>23248</dim>
				</port>
			</output>
		</layer>
		<layer id="130" name="mbox_conf_reshape/DimData_const" precision="FP16" type="Const">
			<output>
				<port id="1">
					<dim>3</dim>
				</port>
			</output>
			<blobs>
				<custom offset="2157228" size="6"/>
			</blobs>
		</layer>
		<layer id="131" name="mbox_conf_reshape" precision="FP16" type="Reshape">
			<data axis="0" num_axes="-1"/>
			<input>
				<port id="0">
					<dim>1</dim>
					<dim>23248</dim>
				</port>
				<port id="1">
					<dim>3</dim>
				</port>
			</input>
			<output>
				<port id="2">
					<dim>1</dim>
					<dim>11624</dim>
					<dim>2</dim>
				</port>
			</output>
		</layer>
		<layer id="132" name="mbox_conf_softmax" precision="FP16" type="SoftMax">
			<data axis="2"/>
			<input>
				<port id="0">
					<dim>1</dim>
					<dim>11624</dim>
					<dim>2</dim>
				</port>
			</input>
			<output>
				<port id="1">
					<dim>1</dim>
					<dim>11624</dim>
					<dim>2</dim>
				</port>
			</output>
		</layer>
		<layer id="133" name="mbox_conf_flatten" precision="FP16" type="Flatten">
			<data axis="1" end_axis="-1"/>
			<input>
				<port id="0">
					<dim>1</dim>
					<dim>11624</dim>
					<dim>2</dim>
				</port>
			</input>
			<output>
				<port id="1">
					<dim>1</dim>
					<dim>23248</dim>
				</port>
			</output>
		</layer>
		<layer id="134" name="conv4_3_0_norm_mbox_priorbox" precision="FP16" type="PriorBox">
			<data aspect_ratio="2.0" clip="0" flip="1" max_size="38.400001525878906" min_size="16.0" offset="0.5" step="16.0" variance="0.10000000149011612,0.10000000149011612,0.20000000298023224,0.20000000298023224"/>
			<input>
				<port id="0">
					<dim>1</dim>
					<dim>192</dim>
					<dim>24</dim>
					<dim>42</dim>
				</port>
				<port id="1">
					<dim>1</dim>
					<dim>3</dim>
					<dim>384</dim>
					<dim>672</dim>
				</port>
			</input>
			<output>
				<port id="2">
					<dim>1</dim>
					<dim>2</dim>
					<dim>16128</dim>
				</port>
			</output>
		</layer>
		<layer id="135" name="conv4_3_norm_mbox_priorbox" precision="FP16" type="PriorBox">
			<data aspect_ratio="2.0" clip="0" flip="1" max_size="76.80000305175781" min_size="38.400001525878906" offset="0.5" step="16.0" variance="0.10000000149011612,0.10000000149011612,0.20000000298023224,0.20000000298023224"/>
			<input>
				<port id="0">
					<dim>1</dim>
					<dim>192</dim>
					<dim>24</dim>
					<dim>42</dim>
				</port>
				<port id="1">
					<dim>1</dim>
					<dim>3</dim>
					<dim>384</dim>
					<dim>672</dim>
				</port>
			</input>
			<output>
				<port id="2">
					<dim>1</dim>
					<dim>2</dim>
					<dim>16128</dim>
				</port>
			</output>
		</layer>
		<layer id="136" name="fc7_0_mbox_priorbox" precision="FP16" type="PriorBox">
			<data aspect_ratio="2.0,3.0" clip="0" flip="1" max_size="124.80000305175781" min_size="76.80000305175781" offset="0.5" step="32.0" variance="0.10000000149011612,0.10000000149011612,0.20000000298023224,0.20000000298023224"/>
			<input>
				<port id="0">
					<dim>1</dim>
					<dim>88</dim>
					<dim>12</dim>
					<dim>21</dim>
				</port>
				<port id="1">
					<dim>1</dim>
					<dim>3</dim>
					<dim>384</dim>
					<dim>672</dim>
				</port>
			</input>
			<output>
				<port id="2">
					<dim>1</dim>
					<dim>2</dim>
					<dim>6048</dim>
				</port>
			</output>
		</layer>
		<layer id="137" name="fc7_mbox_priorbox" precision="FP16" type="PriorBox">
			<data aspect_ratio="2.0,3.0" clip="0" flip="1" max_size="172.8000030517578" min_size="124.80000305175781" offset="0.5" step="32.0" variance="0.10000000149011612,0.10000000149011612,0.20000000298023224,0.20000000298023224"/>
			<input>
				<port id="0">
					<dim>1</dim>
					<dim>88</dim>
					<dim>12</dim>
					<dim>21</dim>
				</port>
				<port id="1">
					<dim>1</dim>
					<dim>3</dim>
					<dim>384</dim>
					<dim>672</dim>
				</port>
			</input>
			<output>
				<port id="2">
					<dim>1</dim>
					<dim>2</dim>
					<dim>6048</dim>
				</port>
			</output>
		</layer>
		<layer id="138" name="conv6_2_mbox_priorbox" precision="FP16" type="PriorBox">
			<data aspect_ratio="2.0,3.0" clip="0" flip="1" max_size="230.39999389648438" min_size="172.8000030517578" offset="0.5" step="64.0" variance="0.10000000149011612,0.10000000149011612,0.20000000298023224,0.20000000298023224"/>
			<input>
				<port id="0">
					<dim>1</dim>
					<dim>152</dim>
					<dim>6</dim>
					<dim>11</dim>
				</port>
				<port id="1">
					<dim>1</dim>
					<dim>3</dim>
					<dim>384</dim>
					<dim>672</dim>
				</port>
			</input>
			<output>
				<port id="2">
					<dim>1</dim>
					<dim>2</dim>
					<dim>1584</dim>
				</port>
			</output>
		</layer>
		<layer id="139" name="conv7_2_mbox_priorbox" precision="FP16" type="PriorBox">
			<data aspect_ratio="2.0,3.0" clip="0" flip="1" max_size="288.0" min_size="230.39999389648438" offset="0.5" step="128.0" variance="0.10000000149011612,0.10000000149011612,0.20000000298023224,0.20000000298023224"/>
			<input>
				<port id="0">
					<dim>1</dim>
					<dim>200</dim>
					<dim>3</dim>
					<dim>6</dim>
				</port>
				<port id="1">
					<dim>1</dim>
					<dim>3</dim>
					<dim>384</dim>
					<dim>672</dim>
				</port>
			</input>
			<output>
				<port id="2">
					<dim>1</dim>
					<dim>2</dim>
					<dim>432</dim>
				</port>
			</output>
		</layer>
		<layer id="140" name="conv8_2_mbox_priorbox" precision="FP16" type="PriorBox">
			<data aspect_ratio="2.0" clip="0" flip="1" max_size="345.6000061035156" min_size="288.0" offset="0.5" variance="0.10000000149011612,0.10000000149011612,0.20000000298023224,0.20000000298023224"/>
			<input>
				<port id="0">
					<dim>1</dim>
					<dim>224</dim>
					<dim>2</dim>
					<dim>3</dim>
				</port>
				<port id="1">
					<dim>1</dim>
					<dim>3</dim>
					<dim>384</dim>
					<dim>672</dim>
				</port>
			</input>
			<output>
				<port id="2">
					<dim>1</dim>
					<dim>2</dim>
					<dim>96</dim>
				</port>
			</output>
		</layer>
		<layer id="141" name="conv9_2_mbox_priorbox" precision="FP16" type="PriorBox">
			<data aspect_ratio="2.0" clip="0" flip="1" max_size="403.20001220703125" min_size="345.6000061035156" offset="0.5" variance="0.10000000149011612,0.10000000149011612,0.20000000298023224,0.20000000298023224"/>
			<input>
				<port id="0">
					<dim>1</dim>
					<dim>128</dim>
					<dim>1</dim>
					<dim>2</dim>
				</port>
				<port id="1">
					<dim>1</dim>
					<dim>3</dim>
					<dim>384</dim>
					<dim>672</dim>
				</port>
			</input>
			<output>
				<port id="2">
					<dim>1</dim>
					<dim>2</dim>
					<dim>32</dim>
				</port>
			</output>
		</layer>
		<layer id="142" name="mbox_priorbox" precision="FP16" type="Concat">
			<data axis="2"/>
			<input>
				<port id="0">
					<dim>1</dim>
					<dim>2</dim>
					<dim>16128</dim>
				</port>
				<port id="1">
					<dim>1</dim>
					<dim>2</dim>
					<dim>16128</dim>
				</port>
				<port id="2">
					<dim>1</dim>
					<dim>2</dim>
					<dim>6048</dim>
				</port>
				<port id="3">
					<dim>1</dim>
					<dim>2</dim>
					<dim>6048</dim>
				</port>
				<port id="4">
					<dim>1</dim>
					<dim>2</dim>
					<dim>1584</dim>
				</port>
				<port id="5">
					<dim>1</dim>
					<dim>2</dim>
					<dim>432</dim>
				</port>
				<port id="6">
					<dim>1</dim>
					<dim>2</dim>
					<dim>96</dim>
				</port>
				<port id="7">
					<dim>1</dim>
					<dim>2</dim>
					<dim>32</dim>
				</port>
			</input>
			<output>
				<port id="8">
					<dim>1</dim>
					<dim>2</dim>
					<dim>46496</dim>
				</port>
			</output>
		</layer>
		<layer id="143" name="detection_out" precision="FP16" type="DetectionOutput">
			<data background_label_id="0" code_type="caffe.PriorBoxParameter.CENTER_SIZE" confidence_threshold="0.009999999776482582" eta="1.0" input_height="1" input_width="1" keep_top_k="200" nms_threshold="0.44999998807907104" normalized="1" num_classes="2" share_location="1" top_k="400" variance_encoded_in_target="0" visualize="False"/>
			<input>
				<port id="0">
					<dim>1</dim>
					<dim>46496</dim>
				</port>
				<port id="1">
					<dim>1</dim>
					<dim>23248</dim>
				</port>
				<port id="2">
					<dim>1</dim>
					<dim>2</dim>
					<dim>46496</dim>
				</port>
			</input>
			<output>
				<port id="3">
					<dim>1</dim>
					<dim>1</dim>
					<dim>200</dim>
					<dim>7</dim>
				</port>
			</output>
		</layer>
	</layers>
	<edges>
		<edge from-layer="0" from-port="0" to-layer="1" to-port="0"/>
		<edge from-layer="1" from-port="3" to-layer="2" to-port="0"/>
		<edge from-layer="2" from-port="3" to-layer="3" to-port="0"/>
		<edge from-layer="3" from-port="1" to-layer="4" to-port="0"/>
		<edge from-layer="4" from-port="3" to-layer="5" to-port="0"/>
		<edge from-layer="5" from-port="1" to-layer="6" to-port="0"/>
		<edge from-layer="6" from-port="3" to-layer="7" to-port="0"/>
		<edge from-layer="7" from-port="1" to-layer="8" to-port="0"/>
		<edge from-layer="8" from-port="3" to-layer="9" to-port="0"/>
		<edge from-layer="9" from-port="1" to-layer="10" to-port="0"/>
		<edge from-layer="10" from-port="3" to-layer="11" to-port="0"/>
		<edge from-layer="11" from-port="1" to-layer="12" to-port="0"/>
		<edge from-layer="12" from-port="3" to-layer="13" to-port="0"/>
		<edge from-layer="13" from-port="1" to-layer="14" to-port="0"/>
		<edge from-layer="14" from-port="3" to-layer="15" to-port="0"/>
		<edge from-layer="15" from-port="1" to-layer="16" to-port="0"/>
		<edge from-layer="16" from-port="3" to-layer="17" to-port="0"/>
		<edge from-layer="17" from-port="1" to-layer="18" to-port="0"/>
		<edge from-layer="18" from-port="3" to-layer="19" to-port="0"/>
		<edge from-layer="19" from-port="1" to-layer="20" to-port="0"/>
		<edge from-layer="20" from-port="3" to-layer="21" to-port="0"/>
		<edge from-layer="21" from-port="1" to-layer="22" to-port="0"/>
		<edge from-layer="22" from-port="3" to-layer="23" to-port="0"/>
		<edge from-layer="23" from-port="1" to-layer="24" to-port="0"/>
		<edge from-layer="24" from-port="3" to-layer="25" to-port="0"/>
		<edge from-layer="25" from-port="1" to-layer="26" to-port="0"/>
		<edge from-layer="26" from-port="3" to-layer="27" to-port="0"/>
		<edge from-layer="27" from-port="1" to-layer="28" to-port="0"/>
		<edge from-layer="28" from-port="3" to-layer="29" to-port="0"/>
		<edge from-layer="29" from-port="1" to-layer="30" to-port="0"/>
		<edge from-layer="30" from-port="3" to-layer="31" to-port="0"/>
		<edge from-layer="31" from-port="1" to-layer="32" to-port="0"/>
		<edge from-layer="32" from-port="3" to-layer="33" to-port="0"/>
		<edge from-layer="33" from-port="1" to-layer="34" to-port="0"/>
		<edge from-layer="34" from-port="3" to-layer="35" to-port="0"/>
		<edge from-layer="35" from-port="1" to-layer="36" to-port="0"/>
		<edge from-layer="36" from-port="3" to-layer="37" to-port="0"/>
		<edge from-layer="37" from-port="1" to-layer="38" to-port="0"/>
		<edge from-layer="38" from-port="3" to-layer="39" to-port="0"/>
		<edge from-layer="39" from-port="1" to-layer="40" to-port="0"/>
		<edge from-layer="40" from-port="3" to-layer="41" to-port="0"/>
		<edge from-layer="41" from-port="1" to-layer="42" to-port="0"/>
		<edge from-layer="42" from-port="3" to-layer="43" to-port="0"/>
		<edge from-layer="43" from-port="1" to-layer="44" to-port="0"/>
		<edge from-layer="44" from-port="3" to-layer="45" to-port="0"/>
		<edge from-layer="45" from-port="1" to-layer="46" to-port="0"/>
		<edge from-layer="46" from-port="3" to-layer="47" to-port="0"/>
		<edge from-layer="47" from-port="1" to-layer="48" to-port="0"/>
		<edge from-layer="48" from-port="3" to-layer="49" to-port="0"/>
		<edge from-layer="49" from-port="1" to-layer="50" to-port="0"/>
		<edge from-layer="47" from-port="1" to-layer="51" to-port="0"/>
		<edge from-layer="51" from-port="3" to-layer="52" to-port="0"/>
		<edge from-layer="52" from-port="1" to-layer="53" to-port="0"/>
		<edge from-layer="47" from-port="1" to-layer="54" to-port="0"/>
		<edge from-layer="54" from-port="3" to-layer="55" to-port="0"/>
		<edge from-layer="55" from-port="1" to-layer="56" to-port="0"/>
		<edge from-layer="56" from-port="3" to-layer="57" to-port="0"/>
		<edge from-layer="57" from-port="1" to-layer="58" to-port="0"/>
		<edge from-layer="58" from-port="3" to-layer="59" to-port="0"/>
		<edge from-layer="59" from-port="1" to-layer="60" to-port="0"/>
		<edge from-layer="60" from-port="3" to-layer="61" to-port="0"/>
		<edge from-layer="61" from-port="1" to-layer="62" to-port="0"/>
		<edge from-layer="62" from-port="3" to-layer="63" to-port="0"/>
		<edge from-layer="63" from-port="1" to-layer="64" to-port="0"/>
		<edge from-layer="61" from-port="1" to-layer="65" to-port="0"/>
		<edge from-layer="65" from-port="3" to-layer="66" to-port="0"/>
		<edge from-layer="66" from-port="1" to-layer="67" to-port="0"/>
		<edge from-layer="61" from-port="1" to-layer="68" to-port="0"/>
		<edge from-layer="68" from-port="3" to-layer="69" to-port="0"/>
		<edge from-layer="69" from-port="1" to-layer="70" to-port="0"/>
		<edge from-layer="70" from-port="3" to-layer="71" to-port="0"/>
		<edge from-layer="71" from-port="1" to-layer="72" to-port="0"/>
		<edge from-layer="72" from-port="3" to-layer="73" to-port="0"/>
		<edge from-layer="73" from-port="1" to-layer="74" to-port="0"/>
		<edge from-layer="74" from-port="3" to-layer="75" to-port="0"/>
		<edge from-layer="75" from-port="1" to-layer="76" to-port="0"/>
		<edge from-layer="73" from-port="1" to-layer="77" to-port="0"/>
		<edge from-layer="77" from-port="3" to-layer="78" to-port="0"/>
		<edge from-layer="78" from-port="1" to-layer="79" to-port="0"/>
		<edge from-layer="79" from-port="3" to-layer="80" to-port="0"/>
		<edge from-layer="80" from-port="1" to-layer="81" to-port="0"/>
		<edge from-layer="81" from-port="3" to-layer="82" to-port="0"/>
		<edge from-layer="82" from-port="1" to-layer="83" to-port="0"/>
		<edge from-layer="83" from-port="3" to-layer="84" to-port="0"/>
		<edge from-layer="84" from-port="1" to-layer="85" to-port="0"/>
		<edge from-layer="82" from-port="1" to-layer="86" to-port="0"/>
		<edge from-layer="86" from-port="3" to-layer="87" to-port="0"/>
		<edge from-layer="87" from-port="1" to-layer="88" to-port="0"/>
		<edge from-layer="88" from-port="3" to-layer="89" to-port="0"/>
		<edge from-layer="89" from-port="1" to-layer="90" to-port="0"/>
		<edge from-layer="90" from-port="3" to-layer="91" to-port="0"/>
		<edge from-layer="91" from-port="1" to-layer="92" to-port="0"/>
		<edge from-layer="92" from-port="3" to-layer="93" to-port="0"/>
		<edge from-layer="93" from-port="1" to-layer="94" to-port="0"/>
		<edge from-layer="91" from-port="1" to-layer="95" to-port="0"/>
		<edge from-layer="95" from-port="3" to-layer="96" to-port="0"/>
		<edge from-layer="96" from-port="1" to-layer="97" to-port="0"/>
		<edge from-layer="97" from-port="3" to-layer="98" to-port="0"/>
		<edge from-layer="98" from-port="1" to-layer="99" to-port="0"/>
		<edge from-layer="99" from-port="3" to-layer="100" to-port="0"/>
		<edge from-layer="100" from-port="1" to-layer="101" to-port="0"/>
		<edge from-layer="101" from-port="3" to-layer="102" to-port="0"/>
		<edge from-layer="102" from-port="1" to-layer="103" to-port="0"/>
		<edge from-layer="50" from-port="1" to-layer="104" to-port="0"/>
		<edge from-layer="53" from-port="1" to-layer="104" to-port="1"/>
		<edge from-layer="64" from-port="1" to-layer="104" to-port="2"/>
		<edge from-layer="67" from-port="1" to-layer="104" to-port="3"/>
		<edge from-layer="76" from-port="1" to-layer="104" to-port="4"/>
		<edge from-layer="85" from-port="1" to-layer="104" to-port="5"/>
		<edge from-layer="94" from-port="1" to-layer="104" to-port="6"/>
		<edge from-layer="103" from-port="1" to-layer="104" to-port="7"/>
		<edge from-layer="47" from-port="1" to-layer="105" to-port="0"/>
		<edge from-layer="105" from-port="3" to-layer="106" to-port="0"/>
		<edge from-layer="106" from-port="1" to-layer="107" to-port="0"/>
		<edge from-layer="47" from-port="1" to-layer="108" to-port="0"/>
		<edge from-layer="108" from-port="3" to-layer="109" to-port="0"/>
		<edge from-layer="109" from-port="1" to-layer="110" to-port="0"/>
		<edge from-layer="61" from-port="1" to-layer="111" to-port="0"/>
		<edge from-layer="111" from-port="3" to-layer="112" to-port="0"/>
		<edge from-layer="112" from-port="1" to-layer="113" to-port="0"/>
		<edge from-layer="61" from-port="1" to-layer="114" to-port="0"/>
		<edge from-layer="114" from-port="3" to-layer="115" to-port="0"/>
		<edge from-layer="115" from-port="1" to-layer="116" to-port="0"/>
		<edge from-layer="73" from-port="1" to-layer="117" to-port="0"/>
		<edge from-layer="117" from-port="3" to-layer="118" to-port="0"/>
		<edge from-layer="118" from-port="1" to-layer="119" to-port="0"/>
		<edge from-layer="82" from-port="1" to-layer="120" to-port="0"/>
		<edge from-layer="120" from-port="3" to-layer="121" to-port="0"/>
		<edge from-layer="121" from-port="1" to-layer="122" to-port="0"/>
		<edge from-layer="91" from-port="1" to-layer="123" to-port="0"/>
		<edge from-layer="123" from-port="3" to-layer="124" to-port="0"/>
		<edge from-layer="124" from-port="1" to-layer="125" to-port="0"/>
		<edge from-layer="100" from-port="1" to-layer="126" to-port="0"/>
		<edge from-layer="126" from-port="3" to-layer="127" to-port="0"/>
		<edge from-layer="127" from-port="1" to-layer="128" to-port="0"/>
		<edge from-layer="107" from-port="1" to-layer="129" to-port="0"/>
		<edge from-layer="110" from-port="1" to-layer="129" to-port="1"/>
		<edge from-layer="113" from-port="1" to-layer="129" to-port="2"/>
		<edge from-layer="116" from-port="1" to-layer="129" to-port="3"/>
		<edge from-layer="119" from-port="1" to-layer="129" to-port="4"/>
		<edge from-layer="122" from-port="1" to-layer="129" to-port="5"/>
		<edge from-layer="125" from-port="1" to-layer="129" to-port="6"/>
		<edge from-layer="128" from-port="1" to-layer="129" to-port="7"/>
		<edge from-layer="129" from-port="8" to-layer="131" to-port="0"/>
		<edge from-layer="130" from-port="1" to-layer="131" to-port="1"/>
		<edge from-layer="131" from-port="2" to-layer="132" to-port="0"/>
		<edge from-layer="132" from-port="1" to-layer="133" to-port="0"/>
		<edge from-layer="47" from-port="1" to-layer="134" to-port="0"/>
		<edge from-layer="1" from-port="3" to-layer="134" to-port="1"/>
		<edge from-layer="47" from-port="1" to-layer="135" to-port="0"/>
		<edge from-layer="1" from-port="3" to-layer="135" to-port="1"/>
		<edge from-layer="61" from-port="1" to-layer="136" to-port="0"/>
		<edge from-layer="1" from-port="3" to-layer="136" to-port="1"/>
		<edge from-layer="61" from-port="1" to-layer="137" to-port="0"/>
		<edge from-layer="1" from-port="3" to-layer="137" to-port="1"/>
		<edge from-layer="73" from-port="1" to-layer="138" to-port="0"/>
		<edge from-layer="1" from-port="3" to-layer="138" to-port="1"/>
		<edge from-layer="82" from-port="1" to-layer="139" to-port="0"/>
		<edge from-layer="1" from-port="3" to-layer="139" to-port="1"/>
		<edge from-layer="91" from-port="1" to-layer="140" to-port="0"/>
		<edge from-layer="1" from-port="3" to-layer="140" to-port="1"/>
		<edge from-layer="100" from-port="1" to-layer="141" to-port="0"/>
		<edge from-layer="1" from-port="3" to-layer="141" to-port="1"/>
		<edge from-layer="134" from-port="2" to-layer="142" to-port="0"/>
		<edge from-layer="135" from-port="2" to-layer="142" to-port="1"/>
		<edge from-layer="136" from-port="2" to-layer="142" to-port="2"/>
		<edge from-layer="137" from-port="2" to-layer="142" to-port="3"/>
		<edge from-layer="138" from-port="2" to-layer="142" to-port="4"/>
		<edge from-layer="139" from-port="2" to-layer="142" to-port="5"/>
		<edge from-layer="140" from-port="2" to-layer="142" to-port="6"/>
		<edge from-layer="141" from-port="2" to-layer="142" to-port="7"/>
		<edge from-layer="104" from-port="8" to-layer="143" to-port="0"/>
		<edge from-layer="133" from-port="1" to-layer="143" to-port="1"/>
		<edge from-layer="142" from-port="8" to-layer="143" to-port="2"/>
	</edges>
	<meta_data>
		<MO_version value="2019.1.0-341-gc9b66a2"/>
		<cli_parameters>
			<data_type value="FP16"/>
			<disable_fusing value="False"/>
			<disable_gfusing value="False"/>
			<disable_nhwc_to_nchw value="False"/>
			<disable_omitting_optional value="False"/>
			<disable_resnet_optimization value="False"/>
			<enable_concat_optimization value="False"/>
			<enable_flattening_nested_params value="False"/>
			<extensions value="DIR"/>
			<framework value="caffe"/>
			<generate_deprecated_IR_V2 value="False"/>
			<input value="data"/>
			<input_model value="DIR/mobilenet384x672-reduced-vd.caffemodel"/>
			<input_model_is_text value="False"/>
			<input_proto value="DIR/mobilenet384x672-reduced-vd.prototxt"/>
			<input_shape value="[1,3,384,672]"/>
			<k value="DIR/CustomLayersMapping.xml"/>
			<keep_shape_ops value="False"/>
			<legacy_mxnet_model value="False"/>
			<log_level value="ERROR"/>
			<mean_scale_values value="{'data': {'mean': array([104., 117., 123.]), 'scale': array([58.82352941])}}"/>
			<mean_values value="data[104.0,117.0,123.0]"/>
			<model_name value="vehicle-detection-adas-0002"/>
			<move_to_preprocess value="False"/>
			<output value="['detection_out']"/>
			<output_dir value="DIR"/>
			<placeholder_shapes value="{'data': array([  1,   3, 384, 672])}"/>
			<remove_output_softmax value="False"/>
			<reverse_input_channels value="False"/>
			<save_params_from_nd value="False"/>
			<scale_values value="data[58.8235294117647]"/>
			<silent value="False"/>
			<version value="False"/>
			<unset unset_cli_parameters="batch, counts, finegrain_fusing, freeze_placeholder_with_value, input_checkpoint, input_meta_graph, input_symbol, mean_file, mean_file_offsets, nd_prefix_name, pretrained_model_name, saved_model_dir, saved_model_tags, scale, tensorboard_logdir, tensorflow_custom_layer_libraries, tensorflow_custom_operations_config_update, tensorflow_object_detection_api_pipeline_config, tensorflow_operation_patterns, tensorflow_subgraph_patterns, tensorflow_use_custom_operations_config"/>
		</cli_parameters>
	</meta_data>
</net>
